dataTVPHONE.pth (torch, 8087 bytes, 6 tensors)

l1.weight f4 [8, 113]
0.16455944 0.5452211 0.4627991 0.42065278 0.5510335 0.45846596 -0.068179175 0.35983104
0.02638319 0.70885456 0.62103397 0.60315615 0.58071053 -0.069548406 0.64669555 0.63384885
-0.13008198 -0.004946947 0.2797446 -0.55022556 -1.0476933 -0.2454847 -0.08504239 -0.36178672
-0.24533166 -0.081235714 0.2166108 -0.75513613 -0.06435317 0.6672942 0.29297766 0.48832065
-0.4994846 1.4128058 0.66593 0.31251764 -0.052448902 -0.06640978 0.52011234 0.62406987
-0.74124235 0.16797543 0.67636704 -0.30643862 0.49198052 -0.74261236 -0.73573095 -0.72940266
-0.7190722 -0.49848714 0.032298956 -0.11998227 -0.31825888 -0.4615787 0.13711226 -0.59707844
0.5308164 -0.22724728 0.67080975 0.48802993 0.48952234 -0.4811964 -0.059871204 -0.3504227
0.8052661 -0.037874743 0.665628 0.47246134 0.52828544 0.6365562 0.7410151 0.71189857
0.7007358 0.7058247 0.7396775 0.69105756 0.6256969 0.7411921 0.3417823 -0.00017275178
-0.18144171 0.45757174 -0.12551865 0.08510122 0.47830248 0.08868787 0.12861745 -0.5715536
0.27977982 -0.2351127 -0.04693632 -0.32922286 -0.19464134 0.66069275 0.34717727 -0.41752812
-0.5362584 -0.4522698 0.5340963 0.07179122 0.44672355 0.42579088 0.19910936 -0.09049224
0.60811424 -0.5675763 0.32351077 0.17190431 0.41121703 -0.50248176 -0.464884 -0.5890516
-0.50055945 -0.16202994 0.8361146 0.8519225 0.87250704 0.84958816 0.83227026 -0.31539392
-0.37545747 -0.3989786 -0.50907356 -0.5425735 -0.542499 -0.519343 -0.41580558 -0.5187767
-0.5423971 0.2624176 -0.30816448 -0.3693679 0.10584601 0.22306606 0.25811556 0.55595946
0.36142796 0.2584984 -0.35915148 0.39019385 0.4678928 0.14394069 -0.19119197 0.42335922
0.39494064 1.1655612 -0.28997672 -0.20826182 0.03064746 -0.27742654 -0.21730459 0.30253947
0.47617865 0.39665306 0.36850813 0.40244564 -0.050747514 0.05541069 0.42958176 0.4877149
0.43186438 0.38440448 -0.4817966 0.19227932 0.34618852 -0.100256875 0.8148487 0.068253145
0.12253147 0.39267004 -0.08984293 -0.41009995 0.102914445 0.48358023 0.25458932 -0.43885934
0.33504987 -0.17508543 0.17553443 -0.41615433 -0.5462876 0.87878835 0.44658175 0.36092404
0.4830076 0.43541226 0.4481669 0.5030855 0.53437203 0.4179913 0.42599314 0.31641915
0.666465 0.24043456 -0.023885405 0.21027847 0.21114624 0.19847824 0.3608911 0.22421041
0.8651171 0.42971528 -0.5882169 -0.3742578 -0.54387623 -0.38939616 0.5262983 0.6371466
0.25584128 -0.5446738 0.34982613 0.33435526 -0.29305017 0.506356 -0.18862182 0.20579864
0.41743442 0.5112793 0.6776246 0.58110774 0.3674429 0.3304802 0.46427995 0.28154698
1.2037983 0.19590126 -0.16038065 -0.6851399 -0.66132915 -0.64536417 -0.6954983 -0.6812266
0.06301199 0.9454686 0.1646086 0.7563335 0.72727096 0.80681884 0.74738044 0.13801032
0.7299271 0.7615447 0.20162198 0.051062346 -0.26996842 -0.4161298 -0.86829984 -0.2831899
0.009930815 -0.5334177 -0.28293148 0.035141803 0.21717362 0.9000306 -0.14296383 0.15411572
00000000: 4582 283e 9c93 0b3f 01f4 ec3e cd5f d73e
00000010: 8810 0d3f 0dbc ea3e 86a1 8bbd c63b b83e
00000020: 8f21 d83c 7e77 353f 15fc 1e3f 7168 1a3f
00000030: 72a9 143f 656f 8ebd d78d 253f eb43 223f
00000040: 3634 05be 001a a2bb af3a 8f3e 95db 0cbf
00000050: d01a 86bf 5760 7bbe b42a aebd 1c3c b9be
00000060: 3938 7bbe e95e a6bd 39cf 5d3e 9a50 41bf
00000070: 98cb 83bd cbd3 2a3f 2b01 963e 2a05 fa3e
00000080: 72bc ffbe d2d6 b43f 637a 2a3f 5002 a03e
00000090: a9d4 56bd da01 88bd 1526 053f 0bc3 1f3f
000000a0: 0fc2 3dbf c001 2c3e 6426 2d3f 86e5 9cbe
000000b0: dfe4 fb3e d81b 3ebf dd58 3cbf 22ba 3abf
000000c0: 1e15 38bf b539 ffbe e94b 043d 44b9 f5bd
000000d0: d4f2 a2be 0b54 ecbe 2867 0c3e 22da 18bf
000000e0: 95e3 073f 83b3 68be 30ba 2b3f 0fdf f93e
000000f0: aca2 fa3e 605f f6be 823b 75bd 9b6a b3be
00000100: eb25 4e3f 8c22 1bbd 9966 2a3f 74e6 f13e
00000110: b73d 073f 59f5 223f 2ab3 3d3f fc3e 363f
00000120: 6c63 333f edb0 343f 815b 3d3f 26e9 303f
00000130: ac2d 203f c4be 3d3f 17fe ae3e b424 35b9
00000140: dbcb 39be d846 ea3e f687 00be 8c49 ae3d
00000150: 10e4 f43e fca1 b53d 4bb4 033e 5651 12bf
00000160: 4d3f 8f3e 62c1 70be 4c40 40bd e68f a8be
00000170: 0f50 47be 2923 293f 38c1 b13e 3fc6 d5be
00000180: 3b48 09bf e88f e7be 89ba 083f 4607 933d
00000190: f3b8 e43e 4301 da3e 53e3 4b3e ff53 b9bd
000001a0: 60ad 1b3f ae4c 11bf 34a3 a53e af07 303e
000001b0: 0a8b d23e a5a2 00bf 4705 eebe 16cc 16bf
000001c0: aa24 00bf 2deb 25be 9b0b 563f 9817 5a3f
000001d0: 9f5c 5f3f 9c7e 593f aa0f 553f 507b a1be
000001e0: f63b c0be ec46 ccbe a552 02bf 19e6 0abf
000001f0: 37e1 0abf aaf3 04bf 78e4 d4be 8dce 04bf
00000200: 89da 0abf 9a5b 863e bcc7 9dbe ca1d bdbe
00000210: cbc5 d83d 6e6b 643e b927 843e 5c53 0e3f
00000220: 160d b93e e759 843e b4e2 b7be 7dc7 c73e
00000230: a58f ef3e 3065 133e d4c7 43be 8ac2 d83e
00000240: a935 ca3e 1c31 953f d477 94be 9642 55be
00000250: 6210 fb3c da0a 8ebe 1885 5ebe 74e6 9a3e
00000260: b0cd f33e 1c16 cb3e 19ad bc3e 5b0d ce3e
00000270: a0dc 4fbd 52f6 623d 24f2 db3e c4b5 f93e
00000280: 541d dd3e aad0 c43e 0bae f6be dfe4 443e
00000290: 9f3f b13e 7a53 cdbd ed99 503f 4ec8 8b3d
000002a0: c8f1 fa3d 0c0c c93e 92ff b7bd 9ff8 d1be
000002b0: cfc4 d23d d497 f73e 8859 823e 2cb2 e0be
000002c0: a88b ab3e 9849 33be 4cbf 333e 2e12 d5be
000002d0: 81d9 0bbf 46f8 603f 5da6 e43e 09cb b83e
000002e0: c64c f73e 5bee de3e 2276 e53e 36ca 003f
000002f0: 9bcc 083f f502 d63e c61b da3e b101 a23e
00000300: 739d 2a3f 7a34 763e 53ab c3bc 3d53 573e
00000310: b836 583e e13d 4b3e b8c6 b83e 6a97 653e
00000320: 5078 5d3f a403 dc3e 6295 16bf b89e bfbe
00000330: 793b 0bbf ef5e c7be 7cbb 063f 0a1c 233f
00000340: a1fd 823e be6f 0bbf 691c b33e 9d30 ab3e
00000350: ac0a 96be 8ca0 013f 1426 41be e1bc 523e
00000360: f7b9 d53e 33e3 023f ce78 2d3f 7ac3 143f
00000370: 7a21 bc3e b334 a93e 1ab6 ed3e ed26 903e
00000380: 1016 9a3f 579a 483e d33a 24be 5465 2fbf
00000390: de4c 29bf 9636 25bf 2d0c 32bf de64 2ebf
000003a0: 6e0c 813d 3b0a 723f 288f 283e 129f 413f
000003b0: 6e2e 3a3f ae8b 4e3f 5354 3f3f 9452 0d3e
000003c0: 81dc 3a3f 98f4 423f fe75 4e3e c026 513d
000003d0: 4d39 8abe f70e d5be e648 5ebf 44fe 90be
000003e0: dbb4 223c 108e 08bf 65dc 90be daf0 0f3d
000003f0: c362 5e3e 6868 663f 1c65 12be 83d0 1d3e

l1.bias f4 [8]
1.0885435 1.1319629 1.3544168 0.64260167 0.9901857 1.2807022 0.88058925 1.0145357
00000000: 6555 8b3f 29e4 903f 885d ad3f 8b81 243f
00000010: cf7c 7d3f 0dee a33f 4c6e 613f 4edc 813f

l2.weight f4 [8, 8]
2.5310867 0.3204168 -0.008895005 -0.14844517 2.4547515 -0.37162298 1.430255 -0.76463217
-0.1651109 -0.385479 -0.18425868 -0.078388065 -0.22582471 0.14154412 0.0037098338 0.30244982
-1.0023643 2.0923672 -1.000737 -0.24740975 -0.97673416 2.3440847 2.3066673 1.1916896
0.5538656 -0.7989312 1.4615979 0.47947156 -1.4990827 -0.39193198 1.6076609 2.0156827
0.59142655 0.7734263 -0.9675097 -0.42094508 1.2629546 1.7488482 0.3112022 -1.6261318
0.043710273 1.3325552 2.2939775 -1.9672699 0.20742005 1.7849523 -0.5238013 1.6485581
-0.39617512 0.871696 -1.439299 -0.42276588 -0.34915516 -0.12709454 1.0883845 0.96111596
-0.085341625 1.4068289 -2.1478107 0.33848524 0.8530051 0.27273542 0.6318821 -0.43771648
00000000: 53fd 2140 ac0d a43e 5bbc 11bc 0302 18be
00000010: a61a 1d40 5e45 bebe 9912 b73f efbe 43bf
00000020: d512 29be 815d c5be 4fae 3cbe ec89 a0bd
00000030: 983e 67be f1f0 103e af20 733b b4da 9a3e
00000040: 794d 80bf 58e9 0540 2618 80bf fb58 7dbe
00000050: 400b 7abf 7c05 1640 70a0 1340 4989 983f
00000060: 23ca 0d3f c186 4cbf a415 bb3f 4c7d f53e
00000070: f1e1 bfbf 4fab c8be d5c7 cd3f f200 0140
00000080: bb67 173f 44ff 453f b7ae 77bf 1d86 d7be
00000090: 7fa8 a13f 42da df3f e555 9f3e 1625 d0bf
000000a0: 8b09 333d 2b91 aa3f 87d0 1240 80cf fbbf
000000b0: ec65 543e 5179 e43f d817 06bf f403 d33f
000000c0: 77d7 cabe 7827 5f3f f33a b8bf c574 d8be
000000d0: 77c4 b2be 1225 02be 2f50 8b3f b20b 763f
000000e0: 97c7 aebd f812 b43f bb75 09c0 f04d ad3e
000000f0: 8b5e 5a3f faa3 8b3e 06c3 213f 601c e0be

l2.bias f4 [8]
-0.10225694 -0.14630736 0.6612766 0.38582963 0.10983246 0.3370267 -0.46221098 -0.111221895
00000000: 166c d1bd 99d1 15be 6c49 293f 768b c53e
00000010: d7ef e03d c38e ac3e eba6 ecbe 4ec8 e3bd

l3.weight f4 [16, 8]
-0.44448447 0.03790059 -1.5692171 0.53426486 -1.5801731 -1.6845585 -0.757519 -1.0989269
0.75711817 -0.050146073 -0.40926772 -0.79932505 -1.9656614 -0.89270526 -1.0405822 -0.6974896
-1.6039878 -0.17042239 0.77634597 -1.87195 -2.553846 -1.6521245 1.2808987 0.89365757
-1.9772458 0.22437355 0.6308453 -2.9435155 0.4239788 0.47356442 -1.9055588 -0.21514225
-1.9344933 0.14810562 0.44130155 -1.3676704 -2.2161543 0.98997027 -1.1832293 -1.3452013
0.8403107 -0.2172599 -1.7689298 -1.6619724 0.49410287 -1.8570045 -1.7562857 0.23822457
-0.3508132 0.22476932 0.23915137 -0.8825293 -2.4513934 -0.10534114 0.38675627 -0.8491353
0.12206843 -0.13846041 0.29522043 -1.3958092 -0.57921463 0.32887626 -1.6615096 -2.1276295
0.06156415 0.2570981 0.054262232 -3.5157979 0.50279456 -0.35580567 -2.415414 0.6714491
-0.4036951 0.0042376304 -0.09787321 -1.0896219 0.20963871 -0.51603985 0.3641329 0.17308445
0.35758948 -0.36589888 -0.18374191 -1.5653235 -0.2107345 -1.7490666 -0.05024193 0.9238282
0.78303635 -0.23832017 -1.8444095 -1.4787005 -3.2239625 1.0195863 -0.71342266 -1.1106551
-0.7604988 0.1876162 0.98205703 -0.39668962 -2.0591943 -1.2156897 -2.6754897 -1.3265903
0.79271716 0.16371647 -0.6959106 -3.9102776 0.36021045 0.2637398 -0.93648654 -3.2364988
-1.15844 0.016318282 0.3322677 -1.8480341 -0.841288 0.021448966 0.92480236 0.05142539
-2.491534 0.042725302 -1.2134591 -0.016782602 -1.1617526 0.5169008 -0.30706117 -1.2174672
00000000: 7893 e3be a63d 1b3d 1bdc c8bf 95c5 083f
00000010: 1d43 cabf 9d9f d7bf c4ec 41bf a3a9 8cbf
00000020: 7fd2 413f f865 4dbd 8a8b d1be 91a0 4cbf
00000030: cb9a fbbf 5588 64bf cc31 85bf ae8e 32bf
00000040: 794f cdbf 3583 2ebe 9cbe 463f 0f9c efbf
00000050: 3672 23c0 d178 d3bf 7df4 a33f bec6 643f
00000060: 6416 fdbf 2ec2 653e 147f 213f 8f62 3cc0
00000070: c013 d93e 0977 f23e 5ae9 f3bf 404e 5cbe
00000080: 7a9d f7bf 00a9 173e 47f2 e13e d30f afbf
00000090: 79d5 0dc0 b16e 7d3f 0f74 97bf 8e2f acbf
000000a0: 9a1e 573f 6179 5ebe 4b6c e2bf 83bb d4bf
000000b0: 0dfb fc3e 53b2 edbf f8cd e0bf 24f1 733e
000000c0: ca9d b3be ee29 663e 19e4 743e 71ed 61bf
000000d0: a1e3 1cc0 18bd d7bd eb04 c63e ee60 59bf
000000e0: 03ff f93d 91c8 0dbe 2227 973e e0a9 b2bf
000000f0: 6947 14bf 7862 a83e 59ac d4bf 152b 08c0
00000100: b12a 7c3d 5da2 833e 1342 5e3d d502 61c0
00000110: 25b7 003f 292c b6be 2596 1ac0 17e4 2b3f
00000120: 20b1 cebe d2db 8a3b c071 c8bd bb78 8bbf
00000130: 88ab 563e 301b 04bf a16f ba3e 0d3d 313e
00000140: f815 b73e 1957 bbbe d726 3cbe 855c c8bf
00000150: c9ca 57be 6ae1 dfbf 7bca 4dbd 0180 6c3f
00000160: 1275 483f 340a 74be 9c15 ecbf 0f46 bdbf
00000170: 6755 4ec0 ce81 823f dea2 36bf f229 8ebf
00000180: 0db0 42bf 761e 403e 1768 7b3f e71a cbbe
00000190: d7c9 03c0 b89b 9bbf 393b 2bc0 b6cd a9bf
000001a0: 83ef 4a3f 4aa5 273e 3227 32bf fd41 7ac0
000001b0: 816d b83e e708 873e 95bd 6fbf cc22 4fc0
000001c0: c347 94bf ebad 853c fe1e aa3e 628c ecbf
000001d0: a65e 57bf beb5 af3c d9bf 6c3f 6ea3 523d
000001e0: 4b75 1fc0 ba00 2f3d a152 9bbf ab7b 89bc
000001f0: 4fb4 94bf 9c53 043f 1f37 9dbe f7d5 9bbf

l3.bias f4 [16]
1.647824 -0.8113052 1.3838459 -0.40677077 -0.6361497 -0.19820324 -0.9905969 -0.6155488
-0.8066339 -1.2787628 -0.7514792 -0.024741733 0.18779844 0.2271316 -1.2081472 0.33108544
00000000: e6eb d23f b3b1 4fbf dd21 b13f 4244 d0be
00000010: b5da 22bf caf5 4abe c297 7dbf 9b94 1dbf
00000020: 8f7f 4ebf 80ae a3bf f160 40bf 2daf cabc
00000030: 3c4e 403e 3095 683e 91a4 9abf 0884 a93e
