static/dataTVPHONE.pth (torch, 6871 bytes, 6 tensors)

l1.weight f4 [8, 79]
0.70216155 -0.1779442 0.59068394 0.20125687 -0.032740593 -0.30989075 0.48530695 0.062637314
0.9866502 0.48843354 0.4030989 -0.6512375 0.64667875 0.27023897 0.4268089 0.76475227
-0.078090765 0.7828993 -0.59122604 0.7362497 0.007574904 0.7563638 -0.13220672 -0.67648125
-0.5253616 -0.36578834 0.36412528 0.38168263 0.75766826 0.5449871 -0.4666808 -0.72100663
0.31022573 0.54184216 0.03376646 -0.26230773 0.018232843 -0.29487833 0.16219859 0.42435947
0.32651708 0.47703484 0.41441238 0.37042513 0.40645075 0.44203386 0.371421 0.48137856
1.0697377 0.15596642 0.19202553 0.38549173 0.33349073 -0.102162406 -0.4412196 0.3969183
-0.086478785 0.7812572 0.11518349 0.51100624 -0.14546727 -0.11786168 0.52442765 0.53743577
-0.43166482 0.5013543 0.48692006 0.6280994 0.4532543 -1.3864548 0.37001064 0.41994083
-0.4399525 0.20162725 -0.73677707 -0.07034839 0.24996695 -0.57539886 0.3231288 0.7607482
0.092503585 0.6833554 -0.1057417 -0.05397628 -0.04697912 0.7029558 0.1470817 0.83079964
-0.1817221 -0.54669124 -0.5322632 0.425526 0.3620118 0.14134774 0.79181033 0.2961871
0.45122898 0.14608473 0.8994807 0.010472775 0.89043725 0.21969198 0.076856576 0.28219482
-0.3191059 0.11484327 -0.015665099 0.7938926 0.6251288 0.26916018 -0.011197495 0.4523524
0.3410895 0.1617675 1.5221394 -0.111730464 -1.1837914 0.097028024 0.15303606 0.14616561
0.010712533 0.1040299 0.12874663 0.13686956 0.071051024 0.10640439 0.05018603 -1.3171735
2.0474293 0.18291041 -0.0140975565 0.23181252 -0.013041445 -0.46610245 -0.46509865 0.100173526
1.096188 0.34241518 -0.030544767 0.046759263 0.12082168 0.5009327 -0.69918734 -1.0784392
-0.20601606 0.5672466 -0.46119183 -0.3020421 1.5421734 0.40410244 0.14732482 -0.27551848
0.2253552 0.10413322 -0.2341616 0.3076968 -0.47942623 0.38202822 0.8041961 0.22397089
0.37738845 0.24961843 -0.18105017 -0.29360706 0.60356754 0.03415663 -0.5266265 -0.22976077
-0.6446238 -0.11965616 0.37616885 0.7576165 -0.29330426 -0.06696879 0.12043595 0.6487191
-0.0026698771 -0.04421586 0.05836125 -0.09596007 0.17418127 0.29005542 -0.18640167 -0.39601818
2.039714 -0.1311615 -0.5024387 0.83678097 -0.11568363 0.7037606 0.28853476 0.063437976
0.20596735 -1.1327897 0.051725768 0.9408815 0.48673293 -0.29344657 -0.2931221 -0.2933868
-0.29366833 -0.29323715 -0.29326525 -0.29367065 -0.293537 -0.2934286 -1.0771675 1.5058634
0.30379453 -0.12701209 0.41253138 0.02519924 -0.32019335 -0.159296 0.08358295 0.9009506
0.20306058 0.088775866 0.12714927 -0.11206733 -0.0031441536 -0.6973379 0.1163184 0.07372119
0.46882823 -0.3032956 -0.3242182 1.4904697 0.0028943147 -0.29327413 -0.34159136 0.3783466
0.69407105 -0.16873305 -0.10041127 -0.1763866 -0.14439312 0.39659488 0.37722084 0.24234115
-0.09655535 0.8417932 1.212598 0.2985037 0.09562763 -0.62447155 -0.2856698 -0.4540673
-0.4498635 -0.1861454 0.22003919 0.39443013 -0.7463445 0.12963066 -0.16084248 0.8768574
00000000: dcc0 333f 0137 36be 1037 173f 4816 4e3e
00000010: 001b 06bd 00aa 9ebe 277a f83e fe47 803d
00000020: 1c95 7c3f f613 fa3e fb62 ce3e 80b7 26bf
00000030: bd8c 253f c35c 8a3e b286 da3e cec6 433f
00000040: 0dee 9fbd 176c 483f 975a 17bf dc7a 3c3f
00000050: e636 f83b 0fa1 413f 3361 07be e02d 2dbf
00000060: 197e 06bf 9c48 bbbe a16e ba3e e86b c33e
00000070: 8cf6 413f 4684 0b3f c9f0 eebe e493 38bf
00000080: e8d5 9e3e 2bb6 0a3f b34e 0a3d 334d 86be
00000090: 0b5d 953c 4bfa 96be 6317 263e a545 d93e
000000a0: 3f2d a73e e93d f43e dc2d d43e 5da8 bd3e
000000b0: 501a d03e 4352 e23e e52a be3e 4077 f63e
000000c0: 2aed 883f a9b5 1f3e 57a2 443e 2c5f c53e
000000d0: 4cbf aa3e 863a d1bd 89e7 e1be e038 cb3e
000000e0: ca1b b1bd 7900 483f 52e5 eb3d 4ed1 023f
000000f0: 5ff5 14be 7761 f1bd e440 063f 6495 093f
00000100: 2c03 ddbe c158 003f 964d f93e 1fcb 203f
00000110: f310 e83e 5a77 b1bf 0972 bd3e 7c02 d73e
00000120: 7441 e1be 6077 4e3e 6c9d 3cbf d112 90bd
00000130: 56f7 7f3e 574d 13bf 2371 a53e 65c0 423f
00000140: 8572 bd3d 61f0 2e3f 1b8f d8bd 3b16 5dbd
00000150: 2d6d 40bd e9f4 333f 969c 163e 49af 543f
00000160: 5c15 3abe f5f3 0bbf 6742 08bf 8bde d93e
00000170: 9c59 b93e 76bd 103e 15b4 4a3f d6a5 973e
00000180: 7c07 e73e 3c97 153e 5e44 663f 0196 2b3c
00000190: b2f3 633f eff6 603e fb66 9d3d d77b 903e
000001a0: d961 a3be f332 eb3d 1854 80bc 8c3c 4b3f
000001b0: 7108 203f 5dcf 893e b375 37bc bc9a e73e
000001c0: 48a3 ae3e 61a6 253e 77d5 c23f f1d2 e4bd
000001d0: 7a86 97bf a1b6 c63d 7cb5 1c3e 70ac 153e
000001e0: 9f83 2f3c a10d d53d 28d6 033e 8927 0c3e
000001f0: 3383 913d 8bea d93d de8f 4d3d 2499 a8bf
00000200: 1509 0340 de4c 3b3e 70f9 66bc 4360 6d3e
00000210: c9ab 55bc fba4 eebe 6921 eebe c727 cd3d
00000220: e34f 8c3f 0b51 af3e 0539 fabc a486 3f3d
00000230: 5b71 f73d 203d 003f f1fd 32bf 4c0a 8abf
00000240: e0f5 52be 1337 113f 5621 ecbe 43a5 9abe
00000250: f065 c53f 84e6 ce3e 51dc 163e c210 8dbe
00000260: 83c3 663e cc43 d53d 0fc8 6fbe 6f8a 9d3e
00000270: 5b77 f5be 3499 c33e ccdf 4d3f a058 653e
00000280: 0f39 c13e f99b 7f3e 3765 39be aa53 96be
00000290: 6783 1a3f d3e7 0b3d ffd0 06bf 6846 6bbe
000002a0: 1106 25bf 4a0e f5bd 3499 c03e 28f3 413f
000002b0: fa2b 96be ef26 89bd 20a7 f63d 7412 263f
000002c0: 1bf9 2ebb b11b 35bd 350c 6f3d b786 c4bd
000002d0: 935c 323e 2582 943e 14e0 3ebe e5c2 cabe
000002e0: ad8a 0240 334f 06be d39f 00bf 4737 563f
000002f0: 8aeb ecbd a829 343f d4ba 933e c5eb 813d
00000300: 1be9 523e 41ff 90bf 66de 533d 9cdd 703f
00000310: 0f35 f93e a13e 96be 1a14 96be cb36 96be
00000320: b25b 96be 2e23 96be dd26 96be 005c 96be
00000330: 7b4a 96be 463c 96be a0e0 89bf 22c0 c03f
00000340: f58a 9b3e 750f 02be 5037 d33e a36e ce3c
00000350: 62f0 a3be 7e1e 23be 8a2d ab3d b3a4 663f
00000360: 1def 4f3e 1fd0 b53d 6b33 023e 8e83 e5bd
00000370: 250e 4ebb bd84 32bf 5738 ee3d 23fb 963d
00000380: 410a f03e 9049 9bbe eeff a5be b6c7 be3f
00000390: 8bae 3d3b 0728 96be 10e5 aebe a5b6 c13e
000003a0: a4ae 313f 5bc8 2cbe 6da4 cdbd b09e 34be
000003b0: cadb 13be 7c0e cb3e 1723 c13e 4728 783e
000003c0: d0be c5bd c27f 573f 6936 9b3f 7ad5 983e
000003d0: 6bd8 c33d 5edd 1fbf 5043 92be 827b e8be
000003e0: 8254 e6be e69c 3ebe f451 613e bff2 c93e
000003f0: 6f10 3fbf e6bd 043e e4b3 24be ba79 603f

l1.bias f4 [8]
1.6460371 0.86477804 0.23629217 1.26055 1.1281942 0.93604225 1.5694305 0.57326514
00000000: 58b1 d23f 1862 5d3f 93f6 713e b459 a13f
00000010: ab68 903f 77a0 6f3f 19e3 c83f 81c1 123f

l2.weight f4 [8, 8]
2.7051845 -0.56007427 -0.63114166 -0.7278288 -0.72384554 -0.9501864 2.4128757 1.4668769
0.76695883 2.1448286 1.3160996 2.161602 -1.6221993 0.86914384 -0.4551638 -0.52281713
0.5516077 -1.3542076 0.94851965 -0.009400073 2.5073211 2.042559 -0.016568506 2.378813
0.16506907 1.6270343 1.8969344 -1.0022169 2.2879574 -0.45640853 1.1887156 -0.27695006
1.5986096 0.0449316 -1.8426422 0.3584617 1.1210909 0.9845617 0.7921597 -1.09841
1.3954765 2.013314 0.12867266 -1.5352447 0.040814996 0.21651044 1.2484558 -0.15526554
0.3839917 0.9379824 -1.4235107 2.0730603 2.0736513 -0.0942346 0.8289935 -0.52179563
-0.16849998 0.14719373 -0.20545672 -0.07963711 0.12713392 -0.31547558 0.04546332 0.12847686
00000000: be21 2d40 0761 0fbf 8092 21bf fd52 3abf
00000010: f14d 39bf 6a3f 73bf 8e6c 1a40 9fc2 bb3f
00000020: 6a57 443f df44 0940 f475 a83f b057 0a40
00000030: 3aa4 cfbf 3680 5e3f 3b0b e9be 58d7 05bf
00000040: 2a36 0d3f ad56 adbf 2fd2 723f c402 1abc
00000050: f377 2040 49b9 0240 adba 87bc 793e 1840
00000060: de07 293e a942 d03f bfce f23f a548 80bf
00000070: e56d 1240 61ae e9be d527 983f 66cc 8dbe
00000080: 3d9f cc3f 330a 383d b3db ebbf 4b88 b73e
00000090: e87f 8f3f 3c0c 7c3f faca 4a3f b398 8cbf
000000a0: f99e b23f 23da 0040 c4c2 033e e682 c4bf
000000b0: a02d 273d eab4 5d3e 66cd 9f3f eefd 1ebe
000000c0: 8f9a c43e 9d1f 703f 9935 b6bf 05ad 0440
000000d0: b4b6 0440 12fe c0bd eb38 543f 6694 05bf
000000e0: 428b 2cbe f4b9 163e 3f63 52be c818 a3bd
000000f0: 652f 023e 0486 a1be bf37 3a3d 708f 033e

l2.bias f4 [8]
0.8908783 0.6340362 0.39257193 0.0120407175 0.6095969 -0.20464346 0.8664849 -0.3640075
00000000: 9a10 643f 3250 223f 30ff c83e 6e46 453c
00000010: 8b0e 1c3f 0e8e 51be f4d1 5d3f 315f babe

l3.weight f4 [20, 8]
0.5446251 1.0860914 -2.925816 -1.8675807 0.21165323 -1.2177329 0.8459852 -0.41367385
0.8168222 -0.31782785 -3.0656278 0.033700254 0.40167803 0.48898026 0.31137374 0.023280928
0.83192277 -0.31626254 -0.15404029 0.43428952 -2.4603746 0.27855867 -2.1190586 -0.23229745
-0.6015588 0.3604773 0.41203183 -0.09311427 -1.2059838 -1.0980705 -2.3867471 -0.21219532
-0.24446242 0.52256143 -1.0770866 -0.044187885 -0.023945196 0.40062168 -0.4621317 0.050170705
0.09479582 -1.048581 -0.6237332 -0.10912698 0.99126965 -0.41719413 0.9709571 0.00578946
-2.123403 0.2941935 -1.167575 -0.6173262 1.0860891 0.11759472 0.6178077 -0.4303475
-1.3748035 0.7808306 -0.2560573 -2.309731 0.2957572 -1.7682791 0.09010296 -0.13732542
-0.021399386 -2.5953856 0.6815158 0.48563245 -0.050547816 -0.2956617 -0.47934434 0.03830469
-0.9448659 -1.1914167 0.8984669 0.5057865 -1.8688748 -2.5448174 -0.4937703 0.17886066
0.12676828 -0.55340135 0.1959555 -0.8766138 0.31612104 0.5632911 -1.0625243 -0.2221375
1.1247002 -2.4327042 -0.12241811 -0.7623398 -0.19965513 0.22662085 -0.12195188 0.14668697
0.9766105 -0.7847178 0.81714296 -1.5490452 -1.940967 -1.1064566 -1.1719369 0.19283164
-0.121826045 -1.2963914 -0.5560834 0.93410534 -0.7474966 0.7871535 -0.094716005 -0.18653938
-0.73827183 -0.2531364 -0.011329989 0.51983935 -1.9740977 -0.35894406 0.31057385 -0.33886823
-2.167865 -2.3049111 0.36881647 0.44134697 0.8723021 -0.41476974 0.61661875 -0.37812328
-0.25385213 -0.7595736 0.49115285 -0.8692759 0.696509 -3.014545 0.5659154 -0.45724997
-1.1086264 0.17534006 0.6339791 -2.4578652 -2.5613172 -1.6633478 0.0020983766 -0.32955593
-1.4072195 0.6045494 -2.237326 1.1091756 -1.9074756 0.124624744 0.58353 -0.080240965
-0.9459678 1.0108105 -0.758598 0.3387368 -1.54925 -2.4461584 -0.22343855 -0.19087541
00000000: 8d6c 0b3f 0b05 8b3f 9240 3bc0 e20c efbf
00000010: a0bb 583e acde 9bbf 7c92 583f 0fcd d3be
00000020: 421b 513f 55ba a2be 3f33 44c0 4709 0a3d
00000030: bea8 cd3e 9f5b fa3e 616c 9f3e a5b7 be3c
00000040: e4f8 543f 2aed a1be bdbc 1dbe 325b de3e
00000050: c776 1dc0 3e9f 8e3e a89e 07c0 62df 6dbe
00000060: c2ff 19bf 7b90 b83e d6f5 d23e b2b2 bebd
00000070: ad5d 9abf 938d 8cbf 77c0 18c0 bb49 59be
00000080: 5b54 7abe 96c6 053f f9dd 89bf 5bfe 34bd
00000090: b728 c4bc 491e cd3e 879c ecbe cc7f 4d3d
000000a0: 5024 c23d e737 86bf fbac 1fbf f77d dfbd
000000b0: d9c3 7d3f 789a d5be a590 783f 83b5 bd3b
000000c0: d6e5 07c0 88a0 963e 1973 95bf 1709 1ebf
000000d0: f804 8b3f 80d5 f03d a528 1e3f 8256 dcbe
000000e0: 90f9 afbf 84e4 473f f119 83be a2d2 13c0
000000f0: 7d6d 973e f856 e2bf e787 b83d 099f 0cbe
00000100: c44d afbc cc1a 26c0 d277 2e3f d1a4 f83e
00000110: 3a0b 4fbd f860 97be 9f6c f5be 61e5 1c3d
00000120: bbe2 71bf 5880 98bf ed01 663f 397b 013f
00000130: 4a37 efbf 4ade 22c0 76cf fcbe 4027 373e
00000140: 8bcf 013e b6ab 0dbf 8fa8 483e c369 60bf
00000150: 9eda a13e d833 103f cc00 88bf 0378 63be
00000160: 2df6 8f3f 6db1 1bc0 59b6 fabd b328 43bf
00000170: 6572 4cbe 4c0f 683e e8c1 f9bd 1c35 163e
00000180: 2503 7a3f 44e3 48bf 4830 513f 1d47 c6bf
00000190: 9b71 f8bf 5fa0 8dbf 0702 96bf a875 453e
000001a0: ef7f f9bd 27f0 a5bf 7b5b 0ebf 8721 6f3f
000001b0: f05b 3fbf e482 493f 77fa c1bd 2e04 3fbe
000001c0: 62ff 3cbf 189b 81be 6ba1 39bc 3114 053f
000001d0: 3caf fcbf 84c7 b7be 8903 9f3e 2380 adbe
000001e0: 4dbe 0ac0 aa83 13c0 83d5 bc3e 3bf8 e13e
000001f0: 314f 5f3f b35c d4be bada 1d3f 6099 c1be
00000200: e8f8 81be 6a73 42bf 6378 fb3e de88 5ebf
00000210: 6a4e 323f 4eee 40c0 d5df 103f ab1c eabe
00000220: 78e7 8dbf 588c 333e 744c 223f aa4d 1dc0
00000230: 9fec 23c0 95e8 d4bf eb84 093b 8ebb a8be
00000240: c51f b4bf c0c3 1a3f 5930 0fc0 77f9 8d3f
00000250: 2928 f4bf 423b ff3d 3962 153f 6055 a4bd
00000260: f22a 72bf 3d62 813f 7b33 42bf e96e ad3e
00000270: d34d c6bf dc8d 1cc0 13cd 64be d874 43be

l3.bias f4 [20]
0.4351603 -0.245257 0.19546089 0.22721566 -0.54539603 -0.13005432 0.21147108 -0.37030244
-0.34839576 0.31476843 -0.4511765 -0.119325235 0.107721046 -0.4021068 -0.32360223 0.24486946
0.1527335 0.14181484 0.42327768 0.099176936
00000000: 55cd de3e a724 7bbe e626 483e 39ab 683e
00000010: 139f 0bbf f62c 05be e08b 583e 4898 bdbe
00000020: ee60 b2be 5429 a13e 9b00 e7be ca60 f4bd
00000030: da9c dc3d f1e0 cdbe 31af a5be 0fbf 7a3e
00000040: 2c66 1c3e e937 113e dab7 d83e 471d cb3d
